serve/model/model_epoch050.pt (torch, 11013 bytes, 5 tensors)

lstm.weight_ih_l0 f4 [80, 5]
000000 64 b1 72 bf 12 e6 26 be a0 80 72 be 1d 42 4e bf
       -0.94801927 -0.16298702 -0.23681879 -0.8056963
000010 59 a6 f9 3d 3c 19 dc 3e d0 c4 72 3f ee a6 49 bf
       0.121899314 0.42988002 0.9483156 -0.7877034
000020 24 81 fa bd 76 19 c3 be d6 f7 95 3e 49 a2 c7 3f
       -0.12231663 -0.38105363 0.29290646 1.55964
000030 70 25 92 40 53 21 81 3f dc 6f 3a 3f 1f b9 a0 be
       4.56707 1.0088295 0.72826934 -0.31391236
000040 09 d5 bb 3e ad 14 e0 3f 19 69 64 40 08 3b 22 40
       0.3668597 1.750631 3.5689147 2.534853
000050 4e fb 63 3f 20 00 15 3f cd 73 ab 3f 33 29 1b 3e
       0.89055336 0.58203316 1.3394715 0.15152435
000060 7c d8 b8 3f a6 85 69 3d 5c c9 1c 40 3b 39 4d bf
       1.4441066 0.057012223 2.44979 -0.8016545
000070 8d c4 82 bf 42 16 95 bf 6a 9f c0 be f6 5a 75 be
       -1.0216233 -1.1647418 -0.37621623 -0.2396048
000080 21 22 15 3e b6 69 36 3e 72 32 42 bd 91 f9 5a 3e
       0.145638 0.17813763 -0.04741139 0.21384265
000090 4b ec 8d 3f b3 af 1a 40 3b 92 0b bf 08 09 bf 3f
       1.1087736 2.4169738 -0.54520005 1.4924631
0000a0 23 a9 38 3f 5b 13 3b 3e ea e0 db bd 6c 64 23 3f
       0.7213308 0.18269102 -0.10736258 0.63825107
0000b0 14 55 00 bc 0a 75 85 3e a9 8f fa be 6a 47 81 3e
       -0.007832784 0.26065856 -0.4893773 0.25249797
0000c0 a6 07 0c 3f 5f d8 68 3e 09 8f 65 bf 08 0a 16 3f
       0.5469917 0.22738789 -0.8967138 0.58609056
0000d0 0f f1 8b 3e f6 56 a0 be 40 39 89 bc df b0 f0 3e
       0.2733235 -0.31316346 -0.016750932 0.47009942
0000e0 01 12 a7 be 2f 12 a5 be 74 60 66 be 9b c6 57 3c
       -0.32630923 -0.32240435 -0.22497731 0.01316991
0000f0 0f 45 c5 be da 14 7e 3e 18 b4 04 bf 77 0c 6c bf
       -0.3852925 0.24812642 -0.518373 -0.9220652
000100 ca 93 47 bf 7a 4a b0 3e 63 52 2a 3e d9 a5 40 3f
       -0.77959883 0.3443182 0.1663299 0.75253063
000110 6f d7 04 3f dd 8e 6d 3f 4a 74 07 3f 95 89 03 be
       0.51891226 0.9279612 0.5291182 -0.12845452
000120 11 d0 83 3f ac be 4a 3f e2 85 af 3e 88 bb fa 3e
       1.0297872 0.7919719 0.34281832 0.489712
000130 b6 e5 93 be 7d 64 be 3c 52 9b 0c 3d da d8 6c 3e
       -0.28886193 0.023241276 0.034327812 0.23129597
000140 14 31 7b 3f e8 10 1d bb c7 d0 05 3e a5 2f 09 bf
       0.9812176 -0.0023966376 0.13067923 -0.53588325
000150 22 0e f3 3e d5 09 42 3e f7 04 0f 3f 45 74 fe be
       0.4747172 0.18949063 0.5586695 -0.49698082
000160 0e c9 c4 be fa 95 da be 7c 3e f5 3e 8a 86 33 be
       -0.38434643 -0.42692548 0.47899234 -0.17531791
000170 b5 4e 29 3f 15 bb a5 3d 25 2d a2 bf 7e 67 19 bf
       0.6613572 0.08092324 -1.2670027 -0.5992354
000180 44 34 5e 3f 77 05 15 bf 9f a5 43 be 71 9a c9 bd
       0.867985 -0.58211464 -0.19106148 -0.098439105
000190 64 f0 06 be 01 22 78 bf cd c0 30 3e ea a6 4c bc
       -0.13177639 -0.96926886 0.17261048 -0.012490967
0001a0 c5 0e 84 3f 15 64 ff 3e a9 b2 7e bf 05 2d 45 c0
       1.0317007 0.49881044 -0.99491364 -3.0808728
0001b0 44 7f 84 bf 29 46 87 bf e2 0f 9b bf ab d7 3a 3e
       -1.0351338 -1.0568286 -1.2114222 0.18246333
0001c0 f0 51 26 40 ab 78 ae 3f 0d 3e d3 3f 6e fe e2 3f
       2.598751 1.3630575 1.6503311 1.7733896
0001d0 f0 64 60 3e 38 eb ed 3e fc a8 73 3f 83 47 d0 3d
       0.21913505 0.4646852 0.95179725 0.1016989
0001e0 d2 46 ba 3f 63 9d 1b 3e be 75 38 3f 36 7e 05 3e
       1.4552863 0.15196757 0.7205466 0.13036427
0001f0 d2 09 9c 3e 10 6c 87 3d 30 b2 4c 3e f8 fd 9f be
       0.30476242 0.06612408 0.19989848 -0.3124845
000200 3b 54 57 be 78 f9 a3 bd ff e2 9a 3f 0e 5a 98 3f
       -0.21028225 -0.08006567 1.2100524 1.1902483
000210 fd e5 e3 be 54 0b 0f bf 76 8a ab be 0e 8b e1 be
       -0.44511405 -0.5587666 -0.33504075 -0.44051403
000220 05 87 ab 3f 48 f6 cd 3f 16 d4 9d be 91 10 be bb
       1.340058 1.6090784 -0.3082587 -0.0058003147
000230 06 b6 5b 3f d9 7a 90 3f 18 39 63 bf 24 ac 80 bf
       0.8582462 1.128749 -0.88758993 -1.0052533
000240 70 b1 af 3f 2f 56 03 3e c6 c5 45 bf 6f fb 32 bf
       1.3726025 0.12825845 -0.77254903 -0.6991491
000250 b9 7e e0 3e 13 ed d6 3e e5 f9 b4 3e ed 59 1a be
       0.43846682 0.41977748 0.35346904 -0.15073366
000260 4b 7c 36 bd 6f 65 63 be 86 89 9a be 59 8e e7 3c
       -0.04455213 -0.22206663 -0.30183047 0.028266119
000270 18 86 db 3d a2 37 09 3e ca 65 98 3e 89 12 a4 bd
       0.10718936 0.13400128 0.2976516 -0.08011348
000280 01 82 e6 3e ea 1c 1d 3e d6 53 a0 3f a3 f8 92 3f
       0.4502106 0.15343061 1.2525585 1.1482128
000290 bf 2f a4 3f 11 cb b7 3f c8 cf 1e 3f d9 c6 5d 3f
       1.2827071 1.4358846 0.620358 0.8663154
0002a0 14 0d 8f 3f f7 e0 0d 3f 02 61 1c 3f 2b 7a 07 bf
       1.1175866 0.55421394 0.6108552 -0.5292079
0002b0 18 88 cc bc 78 64 06 3f 02 f9 0d 3f 16 2a 8c 3e
       -0.024967238 0.52497053 0.5545808 0.2737586
0002c0 27 33 14 3e dd b4 e2 3e 5d b7 a9 3e de 0f 49 3e
       0.14472638 0.44278613 0.33147708 0.19634959
0002d0 72 a7 14 3e 30 12 23 be f1 1c 96 bf ff 1a b6 3e
       0.14517 -0.15924907 -1.1727582 0.3556747
0002e0 30 64 17 3f 23 5c ad bc 97 7a 41 bc ee c9 9d 3d
       0.5913725 -0.021162098 -0.011809013 0.07704531
0002f0 5f 5a a3 bd 66 50 4f 3e 91 25 c0 3e e0 1a 18 3f
       -0.07976221 0.20245513 0.3752866 0.5941601
000300 41 da 1c 3e 7f 6e 32 bf 3e d3 91 3e 1d 1e af 3e
       0.15317632 -0.69699854 0.28481477 0.34202662
000310 64 22 43 be 75 ad e8 be 40 fc 47 be e9 87 2f be
       -0.19056088 -0.45444837 -0.1952982 -0.1714169
000320 6e de ca bd 6c 71 80 bf 9a dd fe bf f6 e7 c0 bf
       -0.09905706 -1.0034614 -1.9911377 -1.5070789
000330 70 c7 19 bf da d8 01 3f cc 84 3f 3f e9 77 30 bf
       -0.6006994 0.50721514 0.74812007 -0.6893297
000340 a6 1f d7 be 65 2d 05 3e 24 62 bb bf b9 19 08 be
       -0.42016333 0.13005598 -1.4639325 -0.13291062
000350 3f cb 66 3f 02 e7 87 3e 31 60 69 3e 0d fa 96 3f
       0.9015388 0.26543432 0.227906 1.179506
000360 05 34 42 3f 11 ca 82 3e 49 7e bc be f9 30 ee 3f
       0.75860626 0.2554479 -0.36815098 1.8608695
000370 e2 c6 ce 3e ba 4a 58 3e 00 59 4f bf 02 2a a6 bf
       0.4038611 0.21122256 -0.8099518 -1.298157
000380 09 9d ae bf 2c 0b 83 be 6e e9 d0 3d 84 67 08 bf
       -1.3641673 -0.2559446 0.10200773 -0.5328295
000390 e4 3e 34 be cb ee 7f be 55 5b ab bf 4d 03 04 40
       -0.17602116 -0.24993436 -1.3387247 2.0627015
0003a0 51 ac fb 3e c5 71 99 3e 42 ab d8 3e c1 0d 04 3d
       0.49154904 0.29969612 0.4231816 0.03223968
0003b0 ac 44 8a 3f af e2 a9 bf 67 bb c0 be 7f 6c 69 be
       1.0802207 -1.3272303 -0.37642977 -0.22795294
0003c0 90 c6 d2 3f a3 25 9f bf a2 57 3f bf 8e 28 69 be
       1.6466846 -1.2433361 -0.7474309 -0.22769377
0003d0 9d b3 bc be aa 6a 08 c0 c1 1f be 3e 8f bf e5 3e
       -0.36855784 -2.1315103 0.371336 0.4487271
0003e0 53 e1 49 bf 78 5a cf 3d c2 7e 03 3f e2 15 e9 bc
       -0.7885944 0.101246774 0.5136529 -0.028452817
0003f0 60 e1 3a be 60 be 8d 3d 50 e4 46 3e 15 7d 1b 3f
       -0.18250036 0.06921077 0.19423032 0.60737735

lstm.weight_hh_l0 f4 [80, 20]
000000 7b ea 94 3f f0 08 9f 3f e2 6f a4 be 39 b6 ff 3f
       1.1634058 1.2424603 -0.3211661 1.9977485
000010 4b 9a ca bf b9 27 a4 bf 74 00 e5 3d 24 a5 67 3f
       -1.5828336 -1.2824622 0.11181727 0.9048636
000020 b7 bd b6 bd ae 6e cd bd c1 a8 06 bf f3 72 82 be
       -0.08922904 -0.10030876 -0.5260125 -0.25478324
000030 e1 cb 2c 3f 12 0f 0a 40 bb 6d 0e bf 3f 5d b7 bf
       0.67498595 2.1571698 -0.55636185 -1.4325331
000040 e8 7a 4a bf e4 a4 7c 3d ee 27 07 bf e9 8f 21 bf
       -0.7909379 0.06168069 -0.527953 -0.63110214
000050 67 cb c2 3f bb 08 6d bf 2a 9e 4c bf 45 33 31 be
       1.5218323 -0.92591447 -0.7992884 -0.17304714
000060 06 38 92 3d 31 9c 6c 3e 91 2b 9f be ee 15 04 3e
       0.07139592 0.23106457 -0.31087926 0.1289899
000070 64 e5 0a 40 6c 6f 5c 3e 06 bf 12 3f 9c 19 9e bf
       2.170251 0.21526879 0.5732273 -1.2351565
000080 ac b5 57 3f c7 6c 83 3f 56 1e ab be 15 95 8d 3f
       0.84261584 1.0267571 -0.33421582 1.1061121
000090 48 18 9f bf ab 4d 08 be a8 87 6d bd 3e 5f 0c bf
       -1.2429285 -0.13310878 -0.0579907 -0.5483283
0000a0 f4 67 89 bf 95 7f ae bf 41 28 f9 3e fa 7c 96 bf
       -1.0734849 -1.3632685 0.48663524 -1.175689
0000b0 14 d0 93 3f 87 5c b8 bd f0 06 da 3f 37 e1 eb be
       1.1547875 -0.09002023 1.7033367 -0.46070263
0000c0 50 d1 3b bd 99 e5 09 3f 43 e3 cf 3f 1c 08 9c 3f
       -0.045853913 0.53865963 1.624123 1.2189975
0000d0 07 64 31 3f cf d2 69 3f 88 d3 8c be 6c e2 b7 3f
       0.69293255 0.91337293 -0.27505136 1.4365973
0000e0 41 77 78 be 68 d3 ef bf 52 da a0 3f 2c 66 54 be
       -0.24264242 -1.8736391 1.2566626 -0.207421
0000f0 3c 12 b0 be 8c b2 2a bf 91 e5 71 bf 9b d0 a2 bf
       -0.34388912 -0.6667869 -0.94490916 -1.2719911
000100 bc 09 56 3d 14 7c 01 3f 3c 85 52 3f e8 bb a6 3c
       0.052255377 0.50579953 0.8223455 0.020353273
000110 fe 34 97 3f b0 1e 18 bf 9c ed 8f 3f 98 64 9a be
       1.1813047 -0.59421825 1.1244388 -0.30154872
000120 42 51 80 3f 3b 32 f9 3f 28 77 00 bf 69 b8 65 3f
       1.0024798 1.9468454 -0.5018182 0.8973451
000130 68 45 fb be b6 47 d2 3e 33 73 ca be 6a 8f 1f be
       -0.4907639 0.41070336 -0.39541015 -0.15582052
000140 dd f5 03 bf 6f 3f 1e 3e 15 12 c5 be 63 ae dd be
       -0.5154703 0.15453885 -0.38490358 -0.4329711
000150 ff d0 4d bf 62 1b 08 3d 83 24 12 3f 13 4f bd bf
       -0.8039703 0.03322924 0.5708696 -1.4789757
000160 60 36 99 3f ac c2 e8 3e 82 47 a0 3f 90 ce d5 be
       1.1969719 0.45461023 1.2521822 -0.41759157
000170 fb 00 c7 3e ab 74 d1 bf cd 4b 08 c0 f5 e2 a9 3f
       0.38867936 -1.6363729 -2.1296265 1.3272387
000180 12 29 e1 3d b0 13 60 bd 1b 35 92 bf 61 3c fe bd
       0.10994162 -0.054706275 -1.1422457 -0.1241386
000190 0c c8 22 bf d4 a6 93 be 64 2d ae bf a0 4f db 3e
       -0.635865 -0.28838217 -1.3607602 0.42834187
0001a0 78 ef 54 bf 71 c3 91 be 61 f8 7b 3f 0d 21 80 3f
       -0.831779 -0.28469422 0.9842587 1.0010086
0001b0 80 78 46 bf 58 6b 0e 3f 45 85 68 3f 6b 13 89 bf
       -0.7752762 0.55632544 0.90828353 -1.0709051
0001c0 cc 52 0e 3e 16 fb 3f bd 8a 49 42 bf ac 31 8d 3f
       0.13898772 -0.046870314 -0.7589346 1.1030784
0001d0 d2 ae 9d bf d1 89 01 3e fd e3 be 3f 67 15 1c be
       -1.2318976 0.12650229 1.4913327 -0.1524254
0001e0 83 56 5b 3e 9a 79 4e 3f d6 c0 d1 be fa 01 3f 3f
       0.2141972 0.806543 -0.40967435 0.7461239
0001f0 5c 34 1f be 08 a2 ed bd 36 d2 95 3f 1b 70 9f 3e
       -0.15547317 -0.11603171 1.1704776 0.31140217
000200 b9 50 f8 3f 12 24 26 bf a7 d2 6a bf 28 88 52 3f
       1.9399635 -0.6489879 -0.9172768 0.8223901
000210 a8 9f 2d 3f ef 63 08 bf d3 e0 8c 3f 4e 64 bb be
       0.6782174 -0.53277487 1.1006111 -0.36599964
000220 85 e2 32 3f 65 21 0c bf a5 10 8c bf ac 88 c2 3d
       0.6987689 -0.54738456 -1.094258 0.09498724
000230 04 a0 24 c0 c2 e0 8c 3f a4 eb ca bf 26 d3 48 bf
       -2.5722666 1.1006091 -1.5853162 -0.78447187
000240 4c 5d 1f bf 11 0a 29 bf c1 d0 a3 3d 1a a7 9c 3f
       -0.62251735 -0.66030985 0.07998801 1.2238495
000250 a0 41 3f 3f a0 c0 95 3f 20 6f af bd a1 f8 43 bf
       0.7470951 1.169941 -0.08566117 -0.7655125
000260 7d 4a 15 bd 48 a0 99 3f ba 09 3e 3d 15 03 ae 3e
       -0.03644799 1.2002039 0.046395995 0.33986726
000270 bc db 0a bf 85 d0 96 be 1a ca 40 c0 19 d7 13 bf
       -0.5424154 -0.29455963 -3.0123353 -0.5775009
000280 69 a7 e1 bc 85 45 e0 3f d6 4f 16 bf 13 d2 5f 3e
       -0.027545648 1.7521216 -0.5871557 0.2185748
000290 db 5d 3b c0 ab f0 71 bf e3 52 2a 40 ed 2a 7a 3e
       -2.9276035 -0.94507855 2.661309 0.24430437
0002a0 35 24 88 be e3 7a ac 3f 93 bb 05 3f e7 14 e3 be
       -0.26590124 1.3475002 0.5223934 -0.44351885
0002b0 72 03 04 bf 66 c1 31 bf 72 b3 cc 3f 0f 57 00 3f
       -0.5156776 -0.6943573 1.5992262 0.5013284
0002c0 1d 3c e3 3e 21 07 25 bf c6 5a d2 bd ab 92 d4 be
       0.443818 -0.64464 -0.1027122 -0.4151815
0002d0 be b5 0c c0 c1 3e 53 bf 1c 6f 21 3e 8a 81 0c bf
       -2.1985927 -0.8251763 0.15765041 -0.5488516
0002e0 b9 66 1d 3f 9d 7c bf be 6a 0f 6d 3f 7a 7d b9 be
       0.6148487 -0.3739976 0.92601645 -0.36228544
0002f0 7e d4 04 3e fa 70 05 be 10 38 3f 3f 53 1a 95 3c
       0.12971684 -0.13031378 0.7469492 0.018201029
000300 6f dd 1b 3f ac 88 49 3f d7 ef 97 3e 62 eb a5 3f
       0.60884756 0.7872417 0.2967517 1.2962458
000310 d9 45 df be f0 66 07 bf b2 da 43 bf fd ca 28 bf
       -0.43607977 -0.52891445 -0.7650558 -0.65934736
000320 e6 77 a6 be ee 86 8c 3d 46 79 2c 3f 73 dc 42 bf
       -0.3251335 0.06861673 0.6737255 -0.7611763
000330 75 c7 05 3f e1 75 68 3f 79 73 2b 3f 37 a9 3b be
       0.5225747 0.9080487 0.6697307 -0.18326269
000340 d4 3a 06 bf 65 a2 da 3e f6 98 f7 bd 84 3f ac be
       -0.52433515 0.42702022 -0.12089722 -0.3364221
000350 22 81 94 3e d3 d1 94 b8 fe b3 0a bf 22 3a 57 3d
       0.2900477 -7.096273e-05 -0.54180896 0.052545674
000360 bd ed 4e bf 95 cd 85 3d 61 35 28 3f ac e9 1c 3f
       -0.8083151 0.06533352 0.6570645 0.61294055
000370 b5 bf 47 3e 88 de ed 3d a1 d7 2d bd c4 92 15 3d
       0.19506724 0.1161471 -0.042441968 0.03651692
000380 9f 7d 0a 3e a5 b8 60 3e dc c0 33 be d5 a0 39 bd
       0.13524483 0.21945436 -0.17554039 -0.045319397
000390 7f a2 e2 3e 0e e1 d1 bc 8d 81 ab 3d 4a 39 e0 3e
       0.442646 -0.02562001 0.08374319 0.43793708
0003a0 d8 97 10 3e 06 d8 c2 3d 7e 17 ed 3e 59 3e e5 3c
       0.14120424 0.095138595 0.46306986 0.027983831
0003b0 fa 97 5e 3d 25 10 7a 3e 70 01 07 bf f4 44 84 bd
       0.054344155 0.24420221 -0.5273657 -0.06458464
0003c0 fc 60 15 3f 65 91 38 3d 47 90 43 bf c5 ae bf 3e
       0.5835111 0.045060534 -0.76392025 0.37438026
0003d0 71 d0 e8 be f4 ff 0d 3f 5c 6a e0 be 63 3d a1 3f
       -0.45471528 0.5546868 -0.43831146 1.2596859
0003e0 2c c4 23 3f a1 e9 a7 be 72 8a ef be b0 ea 93 3e
       0.6397121 -0.32795432 -0.46785313 0.2888999
0003f0 4a f2 3a be c4 dc 7e bf 54 50 fa bd 9e 54 67 bf
       -0.18256488 -0.9955561 -0.122223526 -0.9036349

lstm.bias_ih_l0 f4 [80]
000000 42 5f 3c bf aa 16 54 bf de f1 d9 be fa 97 1a 3e
       -0.7358285 -0.8284708 -0.42567343 0.15097037
000010 8d d8 00 be 6c cf 94 be a8 1f cf 3e b4 f5 37 bf
       -0.12582608 -0.290645 0.4045384 -0.7185929
000020 69 ec 6e bf 8f 31 85 bf b1 7f 89 be e0 26 c8 3f
       -0.93329483 -1.0405749 -0.26855233 1.5636864
000030 18 30 1f 3f 7d 1d 81 3d 14 fe 98 bf 49 95 23 3f
       0.6218276 0.063044526 -1.1952538 0.63899666
000040 6a 49 2c bf cb 38 05 3f ce 0c 96 bf fd 65 85 3f
       -0.6729952 0.52039784 -1.1722658 1.0421749
000050 27 f0 95 3f a6 ae 9a bf bc f7 84 be 99 9a b2 3e
       1.1713914 -1.2084548 -0.25970256 0.34883574
000060 5d 67 7f be 29 a6 06 3f 39 27 db 3e 5a 57 0c 3f
       -0.24941774 0.5259729 0.42803362 0.5482079
000070 e0 e9 32 3f ac 17 3c be f4 90 95 3e f7 99 a9 3e
       0.69888115 -0.18368405 0.29212153 0.33125278
000080 79 67 66 3e b7 6c 96 3d f8 04 13 be 95 f4 0a 3f
       0.22500409 0.073449545 -0.14357364 0.5427945
000090 21 46 ff be a7 23 c0 3e 54 15 37 3f ad c5 97 3e
       -0.49858192 0.375272 0.7151692 0.29643002
0000a0 a9 51 0e bd 73 d0 aa bc fe 34 3e 3f 17 09 09 3e
       -0.034745846 -0.02085135 0.7429961 0.13382374
0000b0 71 86 4b bf 89 27 64 3f 7a f1 2a be 8c c0 2d bf
       -0.79502016 0.89122826 -0.16693678 -0.6787193
0000c0 2e 11 d4 be e7 88 f0 bd cb 5a 75 be e8 3b 1e 3f
       -0.41419357 -0.11744862 -0.23960416 0.6181016
0000d0 c7 ce 23 bf f6 22 0e bf 29 39 01 3e f6 f6 25 be
       -0.6398739 -0.55522096 0.12619461 -0.1620749
0000e0 98 e4 f6 bd c0 42 58 3f 27 b8 ed 3e 57 f6 84 3f
       -0.120553195 0.8447685 0.4642956 1.0387677
0000f0 2c 01 9b bf c5 f5 53 bf c5 f9 c9 3e f7 34 7f bf
       -1.2109733 -0.8279689 0.39448372 -0.9969019
000100 9d d7 80 bf 84 ad 88 3f b0 3e 93 bf 77 00 0d 3f
       -1.00658 1.0677953 -1.1503506 0.55078834
000110 57 0f 40 3e a9 f6 8f be 8e 99 b1 bf f7 8f 2a bf
       0.18755852 -0.28117874 -1.3874986 -0.6662592
000120 2d 22 a7 bf 8e 0d 1f bf 79 4a e4 3e 07 af a3 bf
       -1.3057305 -0.6213006 0.44588068 -1.2787789
000130 72 ad fc be 33 dd 01 bf 87 b5 38 3f ab 76 66 3f
       -0.49351078 -0.5072815 0.7215199 0.9002482

lstm.bias_hh_l0 f4 [80]
000000 75 62 87 bf b1 f4 32 bf 36 61 10 be 1d d7 8f 3c
       -1.0576922 -0.6990462 -0.14099583 0.017558629
000010 87 00 ed bd 7f 21 b2 be 1f 66 92 3e 04 02 6b bf
       -0.11572366 -0.3479118 0.28593537 -0.9179995
000020 32 29 19 bf 96 0a 73 bf 62 95 0f be ee e7 c3 3f
       -0.59828484 -0.9493803 -0.14021829 1.5305154
000030 7e f6 ba 3e f0 2c 0a 3e 32 d4 96 bf 9b 8d b0 3e
       0.36516184 0.13493705 -1.1783507 0.34483036
000040 66 f0 64 bf 5b 6e 29 3f dc 3e 69 bf 61 e1 ab 3f
       -0.8942932 0.66184014 -0.9111154 1.3428155
000050 b3 fd 84 40 55 b6 f2 3f e3 05 38 40 fe d0 48 40
       4.155969 1.8961893 2.8753593 3.1377559
000060 62 aa 3a 40 76 8a 61 40 ef 6e 5b 40 f7 2f 69 40
       2.9166493 3.524076 3.4286458 3.6435525
000070 4c b0 61 40 35 95 3d 40 97 96 4e 40 1d 0c 50 40
       3.5263853 2.9622319 3.2279413 3.2507393
000080 02 3b 46 40 22 7f 42 40 28 46 2b 40 37 05 60 40
       3.0973516 3.0390096 2.676157 3.5003183
000090 08 0b 2d 40 14 31 53 40 fd 20 69 40 0f 38 5a 40
       2.7037983 3.2998705 3.6426384 3.4096715
0000a0 9f 37 6d be bb 1b 2f bd 23 b2 26 3f be cb b1 3e
       -0.23165749 -0.042751055 0.65115565 0.34725755
0000b0 e6 2a 2f bf 41 77 8f 3f e0 57 1b bc ea 9c 2c bf
       -0.6842483 1.1208268 -0.0094814 -0.6742693
0000c0 db 42 61 bd 4d 5c c7 3d f2 70 96 be 0a 81 1d 3f
       -0.0549954 0.09734402 -0.29383045 0.61525023
0000d0 9e 0d 73 be b2 1a ff be 50 c9 f9 bd 55 a2 9b be
       -0.23735663 -0.49825054 -0.121966004 -0.30397287
0000e0 ef 9f 01 be 91 8b 63 3f d5 3b 8e 3d 60 0f a6 3f
       -0.12658666 0.88884836 0.06945006 1.2973442
0000f0 70 a5 b9 bf 82 d9 c7 be 29 b7 ac bc e3 0b 86 bf
       -1.4503613 -0.39033133 -0.021083431 -1.0472378
000100 5e 69 57 bf fa aa 4b 3f 0f 82 55 bf d4 bc 47 3f
       -0.8414515 0.79557765 -0.8340158 0.78022504
000110 8c 44 6e 3e a0 fe cf bd 60 3f a1 bf 83 bf 40 bf
       0.23268336 -0.10155988 -1.2597466 -0.75292224
000120 bd 88 81 bf c6 4a 37 bf b5 d5 43 3e 1a ed b3 bf
       -1.0119854 -0.7159847 0.19124492 -1.4056733
000130 d6 9f f5 be e7 f9 cb be ff ac 29 3f 85 d8 96 3f
       -0.47973508 -0.39839098 0.66279596 1.1784827

head.net.0.weight f4 [1, 20]
000000 b2 85 0f 40 1a 35 18 40 1c d6 1e bd fd 94 e8 3f
       2.242535 2.378241 -0.03877841 1.8170468
000010 ff 2a 03 c0 42 a8 e1 bb 77 e5 e4 bf 08 70 8f 3c
       -2.0494993 -0.006886513 -1.7882527 0.017509475
000020 22 9a 55 3d 87 df 1f bf 46 d2 02 c0 6f f3 b8 3e
       0.052148946 -0.6245045 -2.044084 0.36123225
000030 2b b3 b4 bf e9 45 6d bf d0 18 67 3f 94 3e 13 c0
       -1.4117178 -0.926848 0.90272236 -2.3006945
000040 e0 4d 91 3f 14 1e 5e bd 5c 69 16 bd 4c 17 94 bb
       1.135189 -0.054227903 -0.036721572 -0.0045193788
